DL-2021-IDEC_Homework/checkpoint.pt (torch, 847221 bytes, 14 tensors)

net.0.weight f4 [256, 784]
0	0xbe0a1815	-0.13485749
1	0x3e253356	0.16132864
2	0x3ea5ac00	0.32357788
3	0x3e2510cd	0.1611969
4	0xbd00d5cf	-0.031453904
5	0xbe05f495	-0.13081582
6	0x3dac302b	0.08407625
7	0xbaaed77b	-0.0013339365
8	0x3e275d1b	0.1634411
9	0x3c9f8b6c	0.019475661
10	0xbe209d1b	-0.15684931
11	0xbdfea3ce	-0.12433587
12	0xbe3a62bd	-0.18201728
13	0xbb17574a	-0.00230928
14	0x3d0c751d	0.034291375
15	0x3c14ca58	0.009081446
16	0x3cc88629	0.024478035
17	0xbdc923e3	-0.09821298
18	0xbdfeea8c	-0.1244708
19	0x3e141a92	0.14463261
20	0x3e961cde	0.293189
21	0x3de37282	0.11105825
22	0x3d3692d9	0.04457364
23	0xbd576418	-0.05258569
24	0xbda128d6	-0.07869117
25	0x3def6dd0	0.11690867
26	0xbc10cb9e	-0.008837609
27	0xba829693	-0.0009963088
28	0xbdd242d6	-0.10266654
29	0x3e2cb7b5	0.16866954
30	0x3d55be3c	0.052183375
31	0x3d25493d	0.04035305
32	0xbe279449	-0.1636516
33	0xbe108d21	-0.14116336
34	0xbe3fc3b3	-0.18726997
35	0xbc795075	-0.015216936
36	0xbdf7f8fa	-0.121080354
37	0xbbe70084	-0.007049622
38	0xbc0ca5a3	-0.008584413
39	0xbc7b7e26	-0.0153499
40	0xbdaaca95	-0.08339421
41	0x3c49e7a8	0.012323298
42	0x3c0c5acc	0.00856657
43	0x3d1f859a	0.03894577
44	0x3cf0d5d0	0.029398829
45	0x3c2bdfd1	0.010490374
46	0x3d8a8833	0.06764259
47	0x3ded09cb	0.115741335
48	0x3d2f2da8	0.04276815
49	0xbd06ebf6	-0.032939874
50	0x39e11e33	0.00042937844
51	0xb9d58eee	-0.00040733017
52	0xbdad5850	-0.0846411
53	0xbd5280c7	-0.051392343
54	0x3d3016e9	0.0429906
55	0x3d490b6f	0.04908317
56	0xbd94bb84	-0.07262328
57	0xbe10f5df	-0.14156292
58	0xbe4bd656	-0.19905981
59	0xbce2d43a	-0.027689088
60	0xbe461475	-0.19343741
61	0xbe353950	-0.17697644
62	0xbd91eac3	-0.07124855
63	0x3d8c5f78	0.06854147
64	0x3cde5124	0.0271383
65	0xbc21e93b	-0.009882267
66	0x3b74808d	0.0037308068
67	0x3c49ca6f	0.01231633
68	0x3d8d0ea3	0.06887557
69	0x3e076182	0.1322079
70	0x3e387aa3	0.18015532
71	0x3c822185	0.015885124
72	0x3ad17272	0.0015979542
73	0x3e148573	0.14504032
74	0x3e15d666	0.14632568
75	0x3e0e9239	0.13922967
76	0x3e2e9879	0.17050351
77	0x3cab1216	0.020882647
78	0xbd9c0e64	-0.07619932
79	0x3d5132f8	0.051074
80	0xbb506067	-0.0031795742
81	0xbd5ce814	-0.053932264
82	0xbdb22096	-0.086976215
83	0xbe1244d2	-0.14284065
84	0xbe65c01b	-0.22436564
85	0xbd4d3c52	-0.050106354
86	0xbd6784c7	-0.05652311
87	0xbe0a3fd3	-0.1350091
88	0xbd5d797b	-0.05407093
89	0xbcf84b0e	-0.030309226
90	0x3dc34c47	0.09536033
91	0x3e5bb596	0.21455988
92	0x3d9789db	0.07399341
93	0x3e2397df	0.15975903
94	0x3d90ccd6	0.07070319
95	0xbd012983	-0.03153373
96	0xbde81496	-0.113320515
97	0x3ac08fad	0.0014691256
98	0xbd6bd163	-0.057572734
99	0xbe078f31	-0.13238217
100	0xbdba9e69	-0.091122456
101	0x3ac8c687	0.0015317955
102	0x3dfe3beb	0.12413772
103	0x3dfbd5ba	0.122966245
104	0x3e371db0	0.17882419
105	0x3de8e16c	0.11371121
106	0x3a58c5d7	0.00082692265
107	0x3c3023d0	0.010750726
108	0x3c11c62e	0.008897347
109	0xbd850d4c	-0.06496677
110	0x3cb66615	0.022265473
111	0xbe1e2989	-0.15445532
112	0xbdd15c57	-0.102226906
113	0xbc7befc9	-0.015376993
114	0xbd853107	-0.06503492
115	0xbc81fea7	-0.015868498
116	0xbdd7e1b4	-0.10541096
117	0xbbf1ceeb	-0.007379403
118	0x3e17e7a8	0.14834464
119	0x3c458614	0.0120558925
120	0x3d8bcc6d	0.068261005
121	0x3d6d82cf	0.057986077
122	0xbd3ed777	-0.046592202
123	0x3d49fa5c	0.049311027
124	0xbd0ad2ab	-0.033892315
125	0xbd699737	-0.057028975
126	0xbe396cbe	-0.18107888
127	0xbde02d31	-0.109461196
128	0xbc2632ce	-0.010143949
129	0xbc80fe0a	-0.015746135
130	0x3d29ddf5	0.04147144
131	0x3e189f81	0.14904596
132	0x3d6fae13	0.05851562
133	0xbcc403e0	-0.023927629
134	0x3e0ec039	0.13940515
135	0x3d3f6579	0.04672763
136	0x3c603840	0.013685286
137	0xbe3e38e5	-0.18576391
138	0xbc91d0e4	-0.017799802
139	0xbdcb4518	-0.09925288
140	0x3e653e2c	0.22386998
141	0xbdce5c2a	-0.10076173
142	0xbe301edd	-0.17199273
143	0xbdb2f588	-0.087382376
144	0x3de84847	0.11341911
145	0x3d7d9ea7	0.06191888
146	0x3dd12c15	0.10213486
147	0xbcc976c0	-0.024592757
148	0x3c46e6bc	0.012139972
149	0xbb3f9603	-0.00292337
150	0xbd229904	-0.03969671
151	0x3d3a2aae	0.04545086
152	0x3c83fb29	0.016110973
153	0xbdd56dc9	-0.104213305
154	0xbd8e4f6e	-0.06948744
155	0x3cfc3bf8	0.030790314
156	0x3d18e0fa	0.03732393
157	0x3d287928	0.04113117
158	0xbcf15868	-0.0294611
159	0x3d57b419	0.05266199
160	0xbd6b3fe5	-0.05743398
161	0xbd3a1fb9	-0.04544041
162	0x3d537ebe	0.051634543
163	0x3e002afb	0.12516396
164	0x3d60e20b	0.05490307
165	0xbe061eec	-0.13097733
166	0xbdd9027e	-0.105961785
167	0x3e8f2c91	0.2796369
168	0x3d68bed4	0.056822613
169	0xbe06fa43	-0.13181405
170	0x3c7ffce6	0.0156242605
171	0xbdd2e0fd	-0.10296819
172	0x3dae6d1e	0.08516906
173	0x3d49b3ec	0.049243852
174	0x3daf2fa6	0.0855401
175	0x3d53f39b	0.051745992
176	0x3c83bcf0	0.016081303
177	0x3bf5695b	0.007489366
178	0xbd77dda8	-0.060514122
179	0xbb8232ae	-0.0039733266
180	0xbdab4b6b	-0.08363994
181	0x3cae4ec6	0.021277796
182	0xbc5e934e	-0.013584925
183	0x3d24c4af	0.040226635
184	0xbce4ffdb	-0.027954033
185	0xbda3b7fa	-0.07994075
186	0xbd742e27	-0.059614327
187	0xbcd09ce4	-0.025465436
188	0xbd756633	-0.059911918
189	0xbcd3b452	-0.02584282
190	0x3d6b4ef2	0.057448335
191	0x3e2d09b0	0.16898227
192	0x3d9030dd	0.0704057
193	0x3cec7c44	0.028867848
194	0xbe20250a	-0.1563913
195	0xbe277bd7	-0.16355835
196	0x3dbbbf5b	0.091673575
197	0xbd3a022b	-0.045412224
198	0xbd85be2c	-0.06530413
199	0xbdd70b7d	-0.10500238
200	0xbc5b70f6	-0.013393631
201	0x3d1a600f	0.037689265
202	0x3d950629	0.072765656
203	0xbd89c21e	-0.06726478
204	0xbc0eaf0d	-0.008708728
205	0xbd24c882	-0.04023028
206	0xbdda327e	-0.10654162
207	0xbdf86952	-0.12129463
208	0xbdb9a9ee	-0.09065615
209	0xbdd7251a	-0.105051234
210	0xbde031b4	-0.1094698
211	0xbc8266ae	-0.015918102
212	0x393505ec	0.00017263711
213	0xbddf5e70	-0.109066844
214	0xbe1f4fde	-0.1555781
215	0x3cc8df62	0.02452058
216	0xbb79fa31	-0.003814351
217	0x3be61f51	0.007022776
218	0x3cad5c86	0.021162283
219	0x3d3022b1	0.043001834
220	0x3cab1b40	0.020887017
221	0x3dfebebd	0.12438724
222	0xbd831706	-0.06400876
223	0xbda3a30c	-0.07990083
224	0x3e33c433	0.17555313
225	0xbce6786a	-0.02813359
226	0x3d6bbcaa	0.05755297
227	0xbdba7824	-0.09104946
228	0x3e1da5ea	0.15395322
229	0x3dbaa168	0.09112817
230	0x3d006bf5	0.031352956
231	0x3876002a	5.8651123e-05
232	0x3ccfe6de	0.02537864
233	0x3cf26168	0.029587463
234	0x3d9006c2	0.07032539
235	0xbde0007f	-0.109375946
236	0x3c8cdc81	0.017194988
237	0xbbb54ab7	-0.0055325883
238	0x3d2ad599	0.04170761
239	0x3da2fa0d	0.0795785
240	0xbdda297a	-0.10652442
241	0xbdd958a2	-0.106126085
242	0x3d8380b1	0.0642103
243	0xbdd1fd96	-0.10253446
244	0xbd96afee	-0.07357775
245	0xbc161857	-0.0091610765
246	0xbb8b1a91	-0.0042451103
247	0x3d1a3cf0	0.03765577
248	0x3ca40a84	0.020024545
249	0xbcbfd395	-0.02341632
250	0xbd18676e	-0.037208013
251	0xbd6c35a9	-0.05766836
252	0x3dcbf473	0.09958734
253	0x3c916a4a	0.017750878
254	0xbd3a65a0	-0.045507073
255	0x3c935b94	0.017988004

net.0.bias f4 [256]
0	0xbca48fd2	-0.02008811
1	0x3c93d24a	0.01804461
2	0xbcec6d89	-0.028860824
3	0x3abc111b	0.001434836
4	0xbcfff687	-0.031245483
5	0x3ba48ab5	0.005021418
6	0xbcb975ed	-0.02263924
7	0xbc3358a2	-0.010946425
8	0xbc444234	-0.011978675
9	0x3c32ebcf	0.010920479
10	0x3c92cf6d	0.017921174
11	0xbb3075ed	-0.0026925758
12	0x3cb43f33	0.022002792
13	0x3bf5343d	0.007483034
14	0x3cb73436	0.022363763
15	0x3cebe804	0.028797157
16	0x3c061494	0.008183617
17	0xbbfa2c40	-0.0076346695
18	0xbd0da5e4	-0.034582034
19	0xbcf3660a	-0.029711742
20	0x3c46df8c	0.012138259
21	0x3c9a5de1	0.018843593
22	0x3d0c57e3	0.034263503
23	0x3bb6bf68	0.0055770166
24	0x3cd89c0a	0.026441593
25	0xbcb0e53c	-0.021593682
26	0x39ea9e61	0.0004474996
27	0x3c3368e8	0.010950305
28	0x3b77da97	0.0037819499
29	0xbcc4d65d	-0.024027998
30	0xbccee1cc	-0.025254153
31	0xbc84396a	-0.016140658
32	0x3c9e3bc4	0.019315608
33	0x3cdb3608	0.026759163
34	0x3a2422d4	0.00062612933
35	0xbc4b8326	-0.012421405
36	0xbc0dc663	-0.008653256
37	0x3c41bdde	0.011825053
38	0x3c096f78	0.008388393
39	0x3c04c8f5	0.0081045525
40	0xbc72ad7d	-0.014811871
41	0x3b35ece9	0.0027759618
42	0xbb097e00	-0.0020979643
43	0xbd1596d5	-0.036520798
44	0xbc638536	-0.01388674
45	0xbb696b01	-0.0035616758
46	0xbb19b8dd	-0.0023456134
47	0xbb86bc97	-0.004111837
48	0xbba2010c	-0.0049439725
49	0x3ba689b6	0.0050823344
50	0xbc6fb5eb	-0.014630775
51	0xbbd40cca	-0.006471251
52	0x3c947eca	0.018126864
53	0x3c00cdb9	0.007861548
54	0x3c906b92	0.017629419
55	0x3caa5674	0.020793177
56	0x3cbbbe1b	0.022917798
57	0xbd212273	-0.039339494
58	0xbaeb2768	-0.0017940821
59	0xbc934ca9	-0.01798089
60	0xbc9aa373	-0.018876767
61	0x3a5010ea	0.00079370907
62	0xbc547d51	-0.012969331
63	0x3c2ba57b	0.010476465
64	0x3c8c81ee	0.017151799
65	0xbca41d23	-0.020033425
66	0xbc49b582	-0.012311341
67	0xbc48ee95	-0.012263914
68	0xbc722459	-0.014779174
69	0xbc9b5569	-0.018961625
70	0xbb685c6a	-0.0035455474
71	0x3c839d19	0.016066121
72	0x3ce94979	0.028477417
73	0xbc13bfbb	-0.00901788
74	0xbcd696f6	-0.02619503
75	0xbc9245bb	-0.017855516
76	0xbcb10c79	-0.021612393
77	0xbd005891	-0.031334464
78	0x3ad336d0	0.0016114358
79	0x3cb579a8	0.022152737
80	0x3cd282ae	0.025697079
81	0xbd28d3e8	-0.041217715
82	0x3cfb210d	0.030655408
83	0xbc88ec9e	-0.01671439
84	0x3c549a1b	0.012976195
85	0x3cfef2d8	0.031121656
86	0x3c1d6e2b	0.009608786
87	0xbc78b2eb	-0.015179376
88	0xbcb7be45	-0.022429595
89	0xba172c6c	-0.0005766812
90	0x3cdb2818	0.026752517
91	0x3caac292	0.020844731
92	0x39aca3d1	0.0003292845
93	0xbce8e7f2	-0.028430913
94	0xbcd98540	-0.026552796
95	0xbd03ea40	-0.03220582
96	0xbcd1fda0	-0.025633633
97	0xbceb3e94	-0.028716363
98	0x3ca6a632	0.02034292
99	0xbcbb4c8c	-0.022863649
100	0xbc831b9c	-0.016004376
101	0xbc895a94	-0.016766824
102	0x3cb79434	0.022409536
103	0xbc91fd90	-0.017821103
104	0x3cb91139	0.02259122
105	0xbceb4732	-0.028720472
106	0xbc891d6e	-0.016737666
107	0xbc9ad6c1	-0.01890123
108	0x3b92c3f9	0.004478928
109	0xbcb0e7d4	-0.02159492
110	0xbcf88ec7	-0.030341519
111	0x3c5f5558	0.013631187
112	0xbcaafb3d	-0.020871753
113	0xba8a9c67	-0.0010575176
114	0xbb3b3d9e	-0.0028570662
115	0x3b341510	0.0027478375
116	0x3a5ee2aa	0.00085024035
117	0x3c252699	0.010080003
118	0xbb820261	-0.0039675687
119	0xbc02f055	-0.00799187
120	0x3d076611	0.033056322
121	0x3ceea166	0.029129695
122	0xbc99deea	-0.018783052
123	0x3c6fb86e	0.014631374
124	0x3bdfa27a	0.0068247886
125	0x3c10e1a5	0.00884286
126	0x3cbfa998	0.023396298
127	0x3cbd1169	0.02307959
128	0xbce19c79	-0.027540432
129	0xbca68796	-0.020328324
130	0xbcac2e5c	-0.0210182
131	0x3c612ef4	0.013744105
132	0x3b831270	0.0040000007
133	0xbca10de4	-0.019659944
134	0x3c2cc5d7	0.010545216
135	0xbce81f18	-0.02833514
136	0x3af432bc	0.0018630843
137	0xbcc42127	-0.02394159
138	0x3c7a7af6	0.015288105
139	0xba633bf2	-0.00086682953
140	0xbccfeacf	-0.02538052
141	0x3c593ed5	0.013259609
142	0xbd0b33a3	-0.03398479
143	0xbcce13d8	-0.025155947
144	0x3d037fb6	0.032104217
145	0x39cd6833	0.0003917828
146	0x3c3c3c1d	0.0114889415
147	0xbcf01cef	-0.029310672
148	0xbc64de15	-0.013968964
149	0xbbd47549	-0.006483708
150	0x3d0670d8	0.03282246
151	0x3caacdeb	0.020850142
152	0xbbbe4dec	-0.005807629
153	0x3cb21d18	0.021742389
154	0xbcb6cbe7	-0.022314025
155	0xbcdaea92	-0.02672318
156	0x3cdaa9d0	0.026692301
157	0xbc312558	-0.010812126
158	0xbc607204	-0.013699058
159	0x3bec583d	0.0072126673
160	0xbbb8fd88	-0.0056454577
161	0xb817301f	-3.604602e-05
162	0xbbb3e9a5	-0.005490499
163	0x3cc372a7	0.023858381
164	0xbd24f547	-0.040272977
165	0x3c0f7bf3	0.008757579
166	0x3a51520d	0.0007984944
167	0x3cf50093	0.0299075
168	0xbbe386ac	-0.0069435444
169	0xbd205728	-0.03914562
170	0xbbc29639	-0.005938318
171	0xbcd0d1a5	-0.025490591
172	0x3ccdb666	0.025111388
173	0xbc6d30a2	-0.014476927
174	0xbb8c1aa0	-0.004275635
175	0x3d09661b	0.03354464
176	0x3c13e332	0.009026336
177	0xbcdff5a1	-0.027338805
178	0x3d0141ae	0.031556778
179	0x3bf5ce8b	0.0075014285
180	0xbd0afc72	-0.033932157
181	0x3c4a3eec	0.012344103
182	0xbcec68b6	-0.028858524
183	0x3c84a09d	0.016189868
184	0x3bd5cbb9	0.00652453
185	0xbc57d81b	-0.013174082
186	0xba5c78fe	-0.0008410363
187	0x3c91ec74	0.017812945
188	0x3c99b0f7	0.018761141
189	0xbca4415c	-0.020050697
190	0xbd082cbe	-0.033245794
191	0xbac22b67	-0.001481396
192	0x3c41001c	0.011779811
193	0xbbed876d	-0.00724881
194	0x3b5c1d46	0.0033586784
195	0xbcb4cabd	-0.02206933
196	0xbceff064	-0.029289432
197	0xbb7d2321	-0.0038625675
198	0xbc43b778	-0.011945598
199	0xbce13c35	-0.02749453
200	0x3a787a2d	0.0009478655
201	0xbba48fba	-0.0050220164
202	0xbca2b0d0	-0.019859701
203	0x3c1e39c2	0.009657325
204	0xbc5d2fd9	-0.013500177
205	0x3c19bfdd	0.009384123
206	0xbbbf4199	-0.0058366773
207	0x3cd2eb02	0.025746826
208	0x3c17825c	0.009247389
209	0x3c827725	0.015925953
210	0x3cf68c5a	0.030096222
211	0xbcc0db6e	-0.023542132
212	0x3c829a75	0.015942791
213	0x3cc4bc2f	0.024015514
214	0x3c0d8b91	0.008639232
215	0x3bab8023	0.005233781
216	0x3c9ab951	0.018887194
217	0xba224118	-0.00061895093
218	0x3d04359f	0.0322777
219	0x3cc587f2	0.024112675
220	0xbb35320d	-0.002764824
221	0xbc821c63	-0.015882676
222	0x3bb18fb4	0.005418742
223	0x3c911592	0.01771048
224	0xbb5d7b56	-0.0033795438
225	0x3c2ff568	0.010739662
226	0xbae1ba3e	-0.0017221642
227	0xbabbb9fc	-0.0014322395
228	0xbbf619ce	-0.0075104004
229	0xbbde4583	-0.006783189
230	0xbbe578be	-0.007002919
231	0x3bb468df	0.0055056657
232	0xbcb63b2f	-0.022245018
233	0x3cb9d196	0.022682946
234	0xbbeda83e	-0.007252722
235	0xbd0721cc	-0.032991216
236	0x3c420106	0.011841064
237	0x3cc99254	0.024605907
238	0x3c904da4	0.017615147
239	0xbb08a6fd	-0.0020851486
240	0xbc9ff9e9	-0.019528346
241	0xbc9e8125	-0.01934869
242	0x3c9612ec	0.01831957
243	0xbcef2876	-0.029194098
244	0x3c56b6e9	0.013105133
245	0xbb60d2e6	-0.0034305393
246	0x3c0655a0	0.0081991255
247	0xbc859b46	-0.016309392
248	0xbd0eff91	-0.034911696
249	0xbc42b3f8	-0.011883728
250	0x3b8b9d80	0.004260719
251	0x3cd6c1bb	0.026215425
252	0x3c806b4f	0.015676169
253	0x3ca71153	0.020394003
254	0xbc005a16	-0.007833978
255	0xbca482b0	-0.020081848

net.1.weight f4 [256]
0	0x3f6a68fe	0.91566455
1	0x3f5fda11	0.8744212
2	0x3f7ec4b2	0.99518883
3	0x3f77b360	0.9675808
4	0x3f8e5758	1.1120405
5	0x3f7cc6d1	0.9874087
6	0x3f8aaf29	1.0834705
7	0x3f6acaa5	0.9171546
8	0x3f77ce2b	0.9679896
9	0x3f795dd4	0.97408795
10	0x3f745582	0.95442975
11	0x3f65d089	0.89771324
12	0x3f81ed87	1.0150613
13	0x3f754b8e	0.9581841
14	0x3f86a240	1.0518265
15	0x3f774a05	0.9659732
16	0x3f694cc1	0.9113274
17	0x3f805de2	1.0028651
18	0x3f80c0bd	1.0058819
19	0x3f784da4	0.9699347
20	0x3f7bc834	0.9835236
21	0x3f786ae6	0.97038114
22	0x3f58de9b	0.8471467
23	0x3f726394	0.94683194
24	0x3f438920	0.7638111
25	0x3f7e13d2	0.99248993
26	0x3f87bf63	1.0605282
27	0x3f671086	0.9025959
28	0x3f69ec8b	0.9137656
29	0x3f76a476	0.963447
30	0x3f5cfa5a	0.86319506
31	0x3f7b9ad6	0.98283136
32	0x3f73d2eb	0.9524371
33	0x3f61ce3b	0.8820531
34	0x3f8f71c7	1.1206597
35	0x3f659805	0.8968509
36	0x3f795658	0.97397375
37	0x3f87b909	1.0603343
38	0x3f82bbb3	1.0213531
39	0x3f6d8048	0.92773867
40	0x3f882a17	1.0637845
41	0x3f85030c	1.0391555
42	0x3f6decbd	0.9293936
43	0x3f6c277c	0.9224775
44	0x3f7f354f	0.9969072
45	0x3f69cf58	0.91332006
46	0x3f8213eb	1.0162328
47	0x3f85c3c7	1.0450372
48	0x3f82c993	1.0217766
49	0x3f71cce0	0.9445324
50	0x3f8bef6e	1.0932443
51	0x3f815ec3	1.0107044
52	0x3f75c9da	0.96011126
53	0x3f687aff	0.9081268
54	0x3f5d574d	0.86461335
55	0x3f81d430	1.014288
56	0x3f8ff3ff	1.1246337
57	0x3f8237ed	1.0173317
58	0x3f60e7f0	0.8785391
59	0x3f936c4c	1.1517425
60	0x3f487875	0.783088
61	0x3f736a74	0.9508431
62	0x3f69c23d	0.9131201
63	0x3f7b94a1	0.98273665
64	0x3f7aba0d	0.9794014
65	0x3f7dcf73	0.9914467
66	0x3f77bfbd	0.96776944
67	0x3f70f23b	0.94119614
68	0x3f89dd78	1.0770712
69	0x3f74ff88	0.9570241
70	0x3f8af744	1.085671
71	0x3f81b549	1.0133449
72	0x3f88bd44	1.0682759
73	0x3f5c5415	0.860658
74	0x3f829353	1.020121
75	0x3f779823	0.9671652
76	0x3f8a16b0	1.0788174
77	0x3f8ed559	1.1158859
78	0x3f781ee0	0.9692211
79	0x3f53a5cd	0.82674867
80	0x3f81c3ae	1.0137842
81	0x3f745806	0.95446813
82	0x3f787b1f	0.9706287
83	0x3f8a4c9f	1.0804633
84	0x3f570f8f	0.84008116
85	0x3f732ba7	0.94988483
86	0x3f644056	0.8916067
87	0x3f7f2039	0.9965854
88	0x3f86cca5	1.0531203
89	0x3f4cf98d	0.80068284
90	0x3f5e7257	0.8689322
91	0x3f664b54	0.8995869
92	0x3f4fa4f6	0.81111085
93	0x3f5ef0fd	0.8708647
94	0x3f783dbb	0.96969193
95	0x3f6ecf57	0.93285125
96	0x3f7c0bb2	0.98455346
97	0x3f6a8631	0.9161101
98	0x3f84ec1a	1.0384552
99	0x3f806aa9	1.003255
100	0x3f5749bb	0.8409688
101	0x3f656614	0.89608884
102	0x3f7cd0c3	0.98756045
103	0x3f69bb90	0.9130182
104	0x3f841d58	1.0321455
105	0x3f6e154b	0.9300124
106	0x3f7442ee	0.95414627
107	0x3f568083	0.83789843
108	0x3f814268	1.009839
109	0x3f8377d8	1.0270948
110	0x3f7e48d5	0.9932988
111	0x3f6aa349	0.91655403
112	0x3f849c30	1.0360165
113	0x3f817f44	1.0116963
114	0x3f5b80cb	0.857434
115	0x3f8047a5	1.0021864
116	0x3f70e21e	0.9409503
117	0x3f720e5f	0.9455318
118	0x3f7deb1e	0.99186885
119	0x3f832fb4	1.0248933
120	0x3f7fd40c	0.9993293
121	0x3f808edb	1.0043596
122	0x3f660db1	0.8986464
123	0x3f85d309	1.0455028
124	0x3f794937	0.9737734
125	0x3f872038	1.0556707
126	0x3f88616a	1.0654728
127	0x3f847ac7	1.0349969
128	0x3f8660d5	1.0498301
129	0x3f5a6006	0.8530277
130	0x3f7e001e	0.9921893
131	0x3f7372d2	0.95097077
132	0x3f3ab91e	0.72938716
133	0x3f617141	0.88063437
134	0x3f72f74a	0.94908583
135	0x3f7cb03b	0.98706406
136	0x3f8530d2	1.0405524
137	0x3f53d380	0.827446
138	0x3f8e43a3	1.1114391
139	0x3f87f601	1.062195
140	0x3f8af7e3	1.0856899
141	0x3f7952c7	0.97391933
142	0x3f6a403c	0.91504264
143	0x3f6aec2c	0.9176662
144	0x3f76f16f	0.9646215
145	0x3f57fced	0.8437031
146	0x3f4f3c5a	0.80951464
147	0x3f50f99c	0.81630874
148	0x3f78b336	0.97148454
149	0x3f7c1a0b	0.9847724
150	0x3f8dadc3	1.1068653
151	0x3f82895f	1.0198172
152	0x3f6858e8	0.9076066
153	0x3f8ae9f8	1.0852652
154	0x3f880990	1.0627918
155	0x3f71c33e	0.9443854
156	0x3f5b1b94	0.85588956
157	0x3f53db16	0.82756174
158	0x3f7bf0cb	0.98414296
159	0x3f40fe4e	0.7538804
160	0x3f7ab187	0.97927135
161	0x3f89777d	1.073959
162	0x3f6160e2	0.88038456
163	0x3f6257ed	0.88415414
164	0x3f7f3727	0.9969353
165	0x3f840484	1.0313878
166	0x3f69f235	0.91385204
167	0x3f6a104e	0.9143113
168	0x3f8458ec	1.0339637
169	0x3f891fb0	1.0712795
170	0x3f7b150b	0.98078984
171	0x3f823517	1.0172452
172	0x3f724a2b	0.9464442
173	0x3f6832b5	0.9070237
174	0x3f8b224f	1.0869845
175	0x3f6edf05	0.9330905
176	0x3f6f0ca6	0.93378675
177	0x3f8152ab	1.0103353
178	0x3f837578	1.0270224
179	0x3f6b4a4b	0.9191024
180	0x3f618ae6	0.8810257
181	0x3f8caaa4	1.0989575
182	0x3f586a66	0.8453735
183	0x3f44150c	0.76594615
184	0x3f76bfcb	0.963864
185	0x3f6fb993	0.9364254
186	0x3f7a37ad	0.97741205
187	0x3f7197c7	0.9437222
188	0x3f732973	0.9498512
189	0x3f7c12ab	0.98465985
190	0x3f6078b8	0.876842
191	0x3f58f1de	0.8474406
192	0x3f883b99	1.0643188
193	0x3f7b47bf	0.9815635
194	0x3f7f0247	0.9961285
195	0x3f66a165	0.9009002
196	0x3f81f711	1.0153524
197	0x3f7e4842	0.99329007
198	0x3f8166d6	1.0109508
199	0x3f6e26fc	0.93028235
200	0x3f813d53	1.009684
201	0x3f8dcf55	1.1078898
202	0x3f84a9fb	1.0364374
203	0x3f777f20	0.9667835
204	0x3f83cd0f	1.0296954
205	0x3f62cb1d	0.88591176
206	0x3f6fdd18	0.9369674
207	0x3f4797eb	0.77966183
208	0x3f5c1cff	0.85981745
209	0x3f64c614	0.89364743
210	0x3f566225	0.83743507
211	0x3f723d6b	0.94624966
212	0x3f6964d5	0.9116948
213	0x3f81733e	1.0113294
214	0x3f7854e2	0.9700452
215	0x3f869d3e	1.0516737
216	0x3f739676	0.9515146
217	0x3f6b964c	0.9202621
218	0x3f7138c1	0.94227225
219	0x3f74ad6c	0.9557712
220	0x3f634aff	0.8878631
221	0x3f5da2a1	0.86576277
222	0x3f63a121	0.8891774
223	0x3f8069db	1.0032305
224	0x3f8d7c52	1.1053565
225	0x3f6c6f96	0.92357767
226	0x3f62e5bb	0.8863179
227	0x3f644b74	0.8917763
228	0x3f780471	0.9688178
229	0x3f81fd2b	1.0155386
230	0x3f81cf68	1.014142
231	0x3f83a476	1.0284564
232	0x3f5fcc9b	0.8742158
233	0x3f7fc2aa	0.9990641
234	0x3f7b335e	0.98125255
235	0x3f3a5a93	0.72794455
236	0x3f7f0a65	0.99625236
237	0x3f606c9e	0.87665737
238	0x3f8bddd9	1.0927078
239	0x3f61c68d	0.8819359
240	0x3f60726d	0.876746
241	0x3f695a03	0.9115297
242	0x3f8f1b2c	1.1180167
243	0x3f78514d	0.96999055
244	0x3f66f7df	0.9022197
245	0x3f783f79	0.9697185
246	0x3f926e7d	1.1439968
247	0x3f711a26	0.94180524
248	0x3f686be5	0.90789634
249	0x3f727ec4	0.9472468
250	0x3f846935	1.0344607
251	0x3f6c7f1a	0.9238144
252	0x3f818549	1.01188
253	0x3f860a79	1.0471946
254	0x3f910bfc	1.1331782
255	0x3f80204e	1.0009859

net.1.bias f4 [256]
0	0xbe4b3c11	-0.19847132
1	0xbe923e8d	-0.28563347
2	0xbe97d927	-0.29657862
3	0xbddf8459	-0.10913915
4	0xbe42793a	-0.18991557
5	0xbe9d4a61	-0.3072081
6	0xbe72cb73	-0.23710422
7	0xbe5dca58	-0.2165922
8	0xbe082e90	-0.13299012
9	0xbe6ee3a3	-0.23329024
10	0xbe8c4276	-0.27394456
11	0xbe3ea9ba	-0.18619433
12	0xbe85aa60	-0.26106548
13	0xbe7d3658	-0.24727762
14	0xbe0cd727	-0.13753949
15	0xbde90ec3	-0.11379769
16	0xbea347b7	-0.31890652
17	0xbe07e751	-0.13271834
18	0xbe2abe4e	-0.16674158
19	0xbe370af0	-0.17875266
20	0xbe470741	-0.19436361
21	0xbe7d89a8	-0.24759543
22	0xbe7eed74	-0.24895269
23	0xbe6f5176	-0.23370919
24	0xbea6f992	-0.32612282
25	0xbea1449e	-0.31497663
26	0xbdb72da9	-0.08944256
27	0xbd848e07	-0.06472402
28	0xbe746e5b	-0.23870222
29	0xbe87cc89	-0.26523235
30	0xbe92ba2f	-0.28657672
31	0xbe23f21a	-0.16010323
32	0xbe13ea96	-0.14444956
33	0xbe3ebeba	-0.18627444
34	0xbe91d7a8	-0.28484845
35	0xbe6ff21c	-0.23432201
36	0xbe89115b	-0.26771054
37	0xbe428565	-0.18996198
38	0xbe60eee0	-0.21966124
39	0xbe9d22b0	-0.30690527
40	0xbe1320be	-0.14367959
41	0xbe87e64f	-0.265429
42	0xbe538f78	-0.20660198
43	0xbeaa1077	-0.33215687
44	0xbe273944	-0.16330439
45	0xbe6f5533	-0.23372345
46	0xbe2ae8f3	-0.16690426
47	0xbe91bfc5	-0.2846662
48	0xbe2f57c5	-0.17123325
49	0xbe6246b4	-0.22097284
50	0xbe271a8a	-0.16318718
51	0xbe31a53d	-0.1734819
52	0xbdfea1f9	-0.124332376
53	0xbe22da18	-0.15903509
54	0xbe49e8fb	-0.19717781
55	0xbe1ca67e	-0.15297887
56	0xbe1c1d40	-0.15245533
57	0xbe5be4ee	-0.21474048
58	0xbe86ae06	-0.26304644
59	0xbe4a1756	-0.19735464
60	0xbe6b33b9	-0.2296895
61	0xbe72b974	-0.23703557
62	0xbe996c81	-0.29965594
63	0xbe180c8f	-0.1484854
64	0xbe501126	-0.20319042
65	0xbe4c3479	-0.19941892
66	0xbd93382e	-0.0718845
67	0xbe13ad12	-0.1442149
68	0xbe655fd9	-0.22399844
69	0xbe279bdb	-0.16368048
70	0xbe4653a1	-0.1936784
71	0xbe9d51cf	-0.30726478
72	0xbde36051	-0.11102355
73	0xbe509003	-0.20367436
74	0xbe165923	-0.1468244
75	0xbea27a7b	-0.3173407
76	0xbea962a2	-0.33083063
77	0xbe74e65d	-0.23916002
78	0xbe89c977	-0.26911518
79	0xbe9c3697	-0.305104
80	0xbdba5acb	-0.09099349
81	0xbe83776d	-0.25677052
82	0xbd987438	-0.07444042
83	0xbe76ef8b	-0.24114816
84	0xbe2b897b	-0.16751663
85	0xbe4f47af	-0.20242189
86	0xbe098006	-0.13427743
87	0xbdfbd0b0	-0.12295663
88	0xbe6e1725	-0.23251016
89	0xbe3b6c8b	-0.18303125
90	0xbdc9936e	-0.09842573
91	0xbe8c9d13	-0.27463588
92	0xbe47ad48	-0.19499695
93	0xbe704a99	-0.23465957
94	0xbe7a4ba3	-0.24442916
95	0xbe76e5f4	-0.24111158
96	0xbe1e9a7c	-0.15488619
97	0xbe2cc0b5	-0.16870387
98	0xbe8a1240	-0.2696705
99	0xbe1f3d0a	-0.15550628
100	0xbec0207f	-0.37524793
101	0xbebee2c8	-0.37282395
102	0xbe758a3a	-0.2397851
103	0xbe717984	-0.23581511
104	0xbe843e06	-0.2582857
105	0xbe2d4828	-0.16922057
106	0xbe4d68ed	-0.20059557
107	0xbed2846a	-0.4111665
108	0xbe587d38	-0.21141517
109	0xbe317343	-0.17329125
110	0xbe88d785	-0.26726928
111	0xbe6bdcac	-0.23033398
112	0xbe3501d4	-0.17676479
113	0xbe259d33	-0.16173248
114	0xbe8b0b31	-0.27156976
115	0xbe7a3a44	-0.24436289
116	0xbe675956	-0.22592673
117	0xbe4a16ae	-0.19735214
118	0xbe8aaf92	-0.27087075
119	0xbeb30d5c	-0.3497113
120	0xbe53c17a	-0.20679274
121	0xbe34ac9c	-0.1764397
122	0xbeb01c98	-0.34396815
123	0xbe85c6a3	-0.2612811
124	0xbe3f6793	-0.18691854
125	0xbe90aef8	-0.2825849
126	0xbe063ac9	-0.13108362
127	0xbda68465	-0.08130721
128	0xbdd6f2c8	-0.104955256
129	0xbe88e760	-0.26739025
130	0xbe568083	-0.20947461
131	0xbdeb6160	-0.11493182
132	0xbea9f051	-0.3319116
133	0xbe5f86bd	-0.21828742
134	0xbe685ade	-0.22690913
135	0xbe6202f6	-0.22071442
136	0xbe5089ec	-0.20365113
137	0xbe239b2e	-0.15977165
138	0xbe6d4246	-0.23169813
139	0xbeea41fb	-0.45753464
140	0xbe5b9b77	-0.21446024
141	0xbe9144f7	-0.28372929
142	0xbe90402a	-0.28173953
143	0xbe3e960e	-0.18611929
144	0xbe0fe4e8	-0.14052165
145	0xbe3cadb3	-0.18425636
146	0xbe9070b4	-0.28210986
147	0xbe300116	-0.17187914
148	0xbdc67b09	-0.09691436
149	0xbe74f40b	-0.2392122
150	0xbe74ed8e	-0.23918745
151	0xbe874292	-0.26417977
152	0xbea4ef6c	-0.32213914
153	0xbe2774c8	-0.16353142
154	0xbe6eaa5b	-0.23307173
155	0xbe4bf7c0	-0.19918728
156	0xbe80f705	-0.2518846
157	0xbe65536e	-0.22395107
158	0xbe86bc79	-0.26315668
159	0xbeab5fe0	-0.33471584
160	0xbe90a6ad	-0.28252164
161	0xbdf1226b	-0.11774143
162	0xbe95a455	-0.29226938
163	0xbe8d60cb	-0.2761291
164	0xbe93c1bf	-0.28858754
165	0xbeb2b2fc	-0.3490218
166	0xbe178feb	-0.14800994
167	0xbe42eb87	-0.19035159
168	0xbe728b66	-0.23685989
169	0xbe950139	-0.29102495
170	0xbe10cb94	-0.14140159
171	0xbe6e00f2	-0.23242548
172	0xbe60ba55	-0.2194608
173	0xbe1dd280	-0.1541233
174	0xbe48642b	-0.19569461
175	0xbe8c5004	-0.27404797
176	0xbe9040cb	-0.28174433
177	0xbe5df357	-0.21674858
178	0xbe7a22f4	-0.24427396
179	0xbe9d2116	-0.30689305
180	0xbea2ae44	-0.3177358
181	0xbe61ad53	-0.22038774
182	0xbe8f1818	-0.2794807
183	0xbe67c087	-0.22632037
184	0xbe59922d	-0.21247168
185	0xbe6e7381	-0.23286249
186	0xbe417204	-0.1889115
187	0xbe47cffb	-0.19512932
188	0xbe57e8e3	-0.21084933
189	0xbe399737	-0.1812409
190	0xbddc7006	-0.10763554
191	0xbe6f6605	-0.23378761
192	0xbe488b5e	-0.19584414
193	0xbeb34971	-0.3501697
194	0xbda056da	-0.078290656
195	0xbe81a914	-0.2532431
196	0xbe4b66e4	-0.19863468
197	0xbe4608a1	-0.19339229
198	0xbe5a79da	-0.21335545
199	0xbe7e2f1c	-0.24822658
200	0xbea33130	-0.31873465
201	0xbe991c18	-0.29904246
202	0xbe06f5f8	-0.13179767
203	0xbe18d0a5	-0.14923342
204	0xbe4d2e3c	-0.20037168
205	0xbe92e561	-0.28690627
206	0xbe85a889	-0.26105145
207	0xbe874fea	-0.26428157
208	0xbe19528a	-0.14972892
209	0xbeb8b079	-0.36072138
210	0xbdefc127	-0.11706763
211	0xbe86ba3b	-0.26313958
212	0xbe3b9f3a	-0.18322459
213	0xbe3ee692	-0.18642643
214	0xbe62cceb	-0.22148483
215	0xbeb812ee	-0.35951942
216	0xbd475b7a	-0.048671223
217	0xbe2931bb	-0.16522877
218	0xbe3a8c30	-0.1821754
219	0xbe663053	-0.22479372
220	0xbe3ab804	-0.18234259
221	0xbe9b9950	-0.30390406
222	0xbe891a1c	-0.26777732
223	0xbe320c4a	-0.173875
224	0xbe41370c	-0.18868655
225	0xbe7b6190	-0.24548936
226	0xbeb05298	-0.34438014
227	0xbe7d6bec	-0.247482
228	0xbe31baf7	-0.17356478
229	0xbe8ccfd8	-0.27502322
230	0xbe882f01	-0.2659836
231	0xbea836bd	-0.32854262
232	0xbe333539	-0.17500772
233	0xbe7a9d32	-0.24474028
234	0xbe1e209e	-0.1544213
235	0xbec1e274	-0.37868083
236	0xbdcaaac0	-0.09895849
237	0xbe2394f3	-0.15974788
238	0xbe38b27d	-0.18036838
239	0xbe74b936	-0.23898777
240	0xbe28fff4	-0.16503888
241	0xbe7866ce	-0.24257967
242	0xbe560a1a	-0.20902291
243	0xbe361644	-0.17781931
244	0xbe40d919	-0.18832816
245	0xbd46217f	-0.048371788
246	0xbdfda8b8	-0.12385696
247	0xbe6fa140	-0.23401356
248	0xbe8ace69	-0.27110603
249	0xbe68f352	-0.2274907
250	0xbdbc84d9	-0.09205026
251	0xbe77d69d	-0.24202962
252	0xbe2aacc6	-0.1666747
253	0xbe9058fd	-0.28192893
254	0xbe245e76	-0.16051659
255	0xbea6642a	-0.32498294

net.1.running_mean f4 [256]
0	0x3e2cea8a	0.16886345
1	0x403d1e33	2.9549682
2	0xbf4198fd	-0.75624067
3	0x3e5c7da9	0.2153231
4	0x3f80a21a	1.004947
5	0xbfe1ebdc	-1.7650104
6	0xbccb127e	-0.024789091
7	0x4047f780	3.1244812
8	0xbf1c33e4	-0.6101668
9	0xbf9bc475	-1.2169329
10	0x3d449524	0.047993794
11	0x3e043e1f	0.12914322
12	0xbf8b3036	-1.0874088
13	0xc0026f6a	-2.0380502
14	0xbf247727	-0.6424431
15	0xbfd09531	-1.629553
16	0xbd05ddeb	-0.03268234
17	0x3f5bac74	0.8581002
18	0xbf696626	-0.9117149
19	0xbf166b24	-0.58757234
20	0xbfff44d4	-1.994288
21	0xbfa0527b	-1.2525171
22	0xbf7817b6	-0.9691118
23	0xbf950af4	-1.1643968
24	0xc0550ae9	-3.328791
25	0xbff4e0c2	-1.9131091
26	0x3f2cf88e	0.67566764
27	0x3eb91af1	0.36153367
28	0xbfbfc736	-1.4982669
29	0xbfcf46c7	-1.6193475
30	0x3fbc1885	1.4694983
31	0x3f2b7acf	0.66984266
32	0x3fd104b4	1.632956
33	0x3e3752da	0.17902699
34	0xbe89f1ec	-0.26942384
35	0x4023f6f8	2.5619488
36	0xbe920792	-0.285214
37	0xbf91fefd	-1.1405941
38	0x3dfca41e	0.1233599
39	0xbf4746d2	-0.7784244
40	0xc01d634a	-2.4591851
41	0xbed90d85	-0.42393127
42	0xbf071b7f	-0.5277633
43	0xbf99184a	-1.1960537
44	0xbf5c2a3a	-0.8600193
45	0xbfc794c8	-1.559228
46	0xbfb3cc7f	-1.4046782
47	0xbe7d3273	-0.24726276
48	0x3f5dbe23	0.8661825
49	0xbfeb0af4	-1.8362718
50	0x3f36e01f	0.7143573
51	0xbe566a09	-0.20938887
52	0xbfa3b2b4	-1.2788911
53	0x3f333a40	0.7001076
54	0xbf614eee	-0.8801106
55	0x3f271a74	0.6527474
56	0x3fb1d70e	1.3893754
57	0x3de32894	0.11091724
58	0xbf1050f1	-0.56373507
59	0xbf7ae130	-0.9799986
60	0x40243802	2.5659184
61	0x3fcdac40	1.6068192
62	0xbe389e1f	-0.18029068
63	0xbfec9e92	-1.8485892
64	0x3e96111c	0.29309928
65	0xc0110bbe	-2.2663417
66	0x3e915438	0.28384566
67	0x3f145d47	0.5795483
68	0x3e95542d	0.29165784
69	0xbf42b61f	-0.76059145
70	0xbf2d8e2c	-0.6779506
71	0xbf3acbca	-0.7296721
72	0x3e5e9bc9	0.21739115
73	0x4009c174	2.1524324
74	0x3fce6ff8	1.612792
75	0xbf93ceaa	-1.1547444
76	0xbeafe84c	-0.34356916
77	0xbd5c9a39	-0.053858016
78	0xbf8caefe	-1.0990903
79	0xbf8f4194	-1.1191888
80	0xbf6b46a1	-0.91904646
81	0x3eb78654	0.35844672
82	0x3fb33e84	1.4003453
83	0x3d8fe4cb	0.07026061
84	0x408f74dc	4.483015
85	0xbfada973	-1.3567337
86	0xbffd85fb	-1.9806513
87	0xbef4b9af	-0.47797915
88	0xbbea493a	-0.0071498426
89	0x3ff009ef	1.8753031
90	0x3f363dea	0.71188223
91	0xc01fb629	-2.4954932
92	0xbe8ea905	-0.27863327
93	0x3f00e2d8	0.50346136
94	0xbf398d29	-0.7248102
95	0xc01fdb09	-2.4977438
96	0xbfd9a065	-1.7002074
97	0xbfca44be	-1.5802228
98	0xbfd8b314	-1.692965
99	0xbfdb74fc	-1.7145076
100	0xc07d99fe	-3.962524
101	0xc0374fd2	-2.8642468
102	0x4012a86d	2.29153
103	0xbed6db53	-0.41964206
104	0xbfac4388	-1.3458109
105	0xbf22f148	-0.63649416
106	0xbfe6dd05	-1.80362
107	0xc062a54d	-3.5413392
108	0xbe44626f	-0.19178174
109	0x3e900889	0.28131512
110	0xbfef26ff	-1.8683776
111	0xbfbdd739	-1.4831306
112	0xbf5f9cd0	-0.8734865
113	0x3efe4fa1	0.49670127
114	0xc001c298	-2.027502
115	0xbf63dbc4	-0.8900721
116	0x3f28d600	0.6595154
117	0xbebdfd3f	-0.37107274
118	0xbf7cc3bd	-0.9873617
119	0xbfc15a30	-1.5105648
120	0x3fbd65e0	1.4796715
121	0x3e19eabd	0.15030952
122	0xc01f235b	-2.486533
123	0xc013a78a	-2.3071008
124	0xc00a39ba	-2.1597733
125	0xbc0ef789	-0.008726009
126	0x3faf00c1	1.3672105
127	0x3bf53442	0.0074830363
128	0xbf70387b	-0.9383618
129	0x3f853cfa	1.0409234
130	0xbdc4d0a9	-0.09610111
131	0x400a8783	2.164521
132	0x3fd71fcd	1.680658
133	0x3f4a51d0	0.79031086
134	0xbe90b638	-0.28264022
135	0xbf94dd03	-1.1629947
136	0xbe04bb20	-0.12962008
137	0x4015dcee	2.3416095
138	0xbf146efb	-0.5798184
139	0xbf6ce5f1	-0.9253836
140	0xbebb2053	-0.365481
141	0xbfdc61ba	-1.7217324
142	0xbf1455c3	-0.5794336
143	0xbff73f57	-1.9316205
144	0x401c7961	2.4449084
145	0xbf0a2561	-0.53963286
146	0x3ecb60fe	0.39722437
147	0xbf05f577	-0.52327675
148	0x3f9888dc	1.1916766
149	0xbf046adb	-0.5172555
150	0x3d1bbcbd	0.03802179
151	0xbf424995	-0.7589353
152	0x3ec5940d	0.38589516
153	0x3d472b90	0.04862553
154	0xbf3fc568	-0.74910593
155	0xbeee283b	-0.46515068
156	0xc01a1064	-2.4072504
157	0xbfba29eb	-1.4544042
158	0xbf4054fc	-0.75129676
159	0xc03c8bd5	-2.9460347
160	0xbf319a73	-0.69376296
161	0x3e6c6b07	0.23087703
162	0xc02f3a36	-2.737928
163	0xbf0dc549	-0.5537916
164	0xbe60b7ad	-0.21945067
165	0xbfe85c39	-1.8153144
166	0xc0104747	-2.2543504
167	0xbf848b44	-1.0355
168	0x3ecba80a	0.3977664
169	0x40785ee4	3.8807917
170	0xbf500c1a	-0.81268466
171	0x3f0ecfa0	0.5578556
172	0x3f3858f3	0.72010726
173	0xbef2a907	-0.47394583
174	0xbc790e99	-0.015201234
175	0xbeab30cb	-0.33435664
176	0xbf942af0	-1.1575603
177	0xbfa71c65	-1.305554
178	0xbf44d88c	-0.76892924
179	0xbf787bb9	-0.97063786
180	0xbed07419	-0.40713575
181	0xbd3e6b7e	-0.04648923
182	0x3eb4d0f4	0.3531567
183	0xbf9e7bc3	-1.2381519
184	0xbf9bc912	-1.2170737
185	0xc02956a1	-2.6459124
186	0x3de9537f	0.11392879
187	0x3e8d15dd	0.27555743
188	0xbf9011a7	-1.1255387
189	0xbf359c8c	-0.70941997
190	0xbeef910c	-0.4679035
191	0xbf79eaeb	-0.9762408
192	0x3fba5961	1.4558526
193	0xc0092999	-2.143164
194	0xbd18f50e	-0.037343077
195	0xc00c1fa5	-2.1894314
196	0xbf257f56	-0.64647424
197	0xbfb544eb	-1.4161657
198	0x3fa8d43f	1.3189772
199	0x3e732e15	0.23748048
200	0xbcde7677	-0.027156098
201	0x3e0b31ec	0.13593262
202	0xbef0aed7	-0.47008392
203	0xbf3e427b	-0.7432019
204	0xbeab27ac	-0.33428705
205	0xbfb972b4	-1.448813
206	0xbfe71ab6	-1.8055027
207	0x3e94d189	0.29066113
208	0x3f4a3265	0.78983146
209	0xc00b5cc6	-2.1775374
210	0xbee3d9ae	-0.44502014
211	0xbfab7c65	-1.3397337
212	0xc005a03a	-2.0879045
213	0x3edf42f3	0.43605766
214	0xbf9bb862	-1.2165644
215	0xbf847c55	-1.0350443
216	0xbe482e06	-0.19548807
217	0xbef7bce2	-0.48386294
218	0xbf54dac2	-0.831463
219	0xc07a1d2f	-3.9080312
220	0x3f0f7023	0.5603048
221	0xbf369158	-0.71315527
222	0xbf2e730c	-0.681443
223	0xbeb3bc65	-0.3510467
224	0x408926ab	4.28597
225	0x3f10a428	0.5650048
226	0xc05bb49b	-3.4328983
227	0x3f8c7750	1.0973911
228	0xbea5f77f	-0.32415387
229	0xbfc824a0	-1.5636177
230	0xbf61e382	-0.88237774
231	0xbf404b96	-0.75115335
232	0xbd2ef698	-0.04271564
233	0xbfe3cde6	-1.779721
234	0xbf0a5a36	-0.540439
235	0xc045cacf	-3.0905035
236	0xbf9882a4	-1.1914868
237	0xbf51d380	-0.8196335
238	0xbe3b2ba9	-0.18278374
239	0xbfc3d687	-1.5299844
240	0xbff64393	-1.9239372
241	0xbf92a2cd	-1.1455933
242	0x3ea7ae2f	0.3275008
243	0xbf9a2098	-1.2041197
244	0x3fcbe2d2	1.5928595
245	0x3ddd8e7d	0.10818193
246	0x3edb246b	0.42801222
247	0xc0141364	-2.3136835
248	0x3ebadaec	0.3649515
249	0x4037cb2b	2.8717754
250	0xbffe786c	-1.98805
251	0xbfcaaa3e	-1.5833204
252	0xbfddf80f	-1.7341326
253	0xc01d7fb7	-2.46092
254	0xbf8b4c71	-1.0882703
255	0xbe882698	-0.26591945

net.1.running_var f4 [256]
0	0x3f580e85	0.84397155
1	0x404407f8	3.0629864
2	0x40302b70	2.7526512
3	0x3ffdab53	1.9817909
4	0x3fbcde48	1.4755335
5	0x4058d555	3.3880208
6	0x3f9bdb97	1.2176389
7	0x3ff3b06f	1.9038218
8	0x4010e828	2.2641697
9	0x3fbf15a4	1.4928479
10	0x3fba0be8	1.4534883
11	0x403a922c	2.9151716
12	0x40105c0d	2.2556183
13	0x40314c12	2.770268
14	0x3f5b610f	0.85694975
15	0x401e62ee	2.4747882
16	0x3f74be91	0.9560328
17	0x3ffe31cb	1.9858946
18	0x3f99b126	1.2007186
19	0x3f75f25b	0.9607293
20	0x4075d07a	3.8408494
21	0x40654936	3.5825934
22	0x40300e06	2.750856
23	0x401d8554	2.4612627
24	0x40864ce0	4.196884
25	0x3fc44272	1.5332778
26	0x400d6a13	2.2095993
27	0x3fbc79f3	1.4724716
28	0x3f9e41ed	1.2363869
29	0x4052e542	3.2952428
30	0x3f962c7b	1.1732324
31	0x3f6ddcb6	0.92914903
32	0x3fcc8699	1.5978576
33	0x3fb609cd	1.4221741
34	0x3f6fbaba	0.936443
35	0x3fdd072d	1.7267815
36	0x3f308cda	0.6896492
37	0x3fc325c9	1.5245906
38	0x3fcffb18	1.6248503
39	0x3fb3b109	1.4038402
40	0x3fbf887a	1.4963524
41	0x3f42b5e8	0.76058817
42	0x402dfbf4	2.718503
43	0x4003e0f9	2.0606062
44	0x402852fd	2.6300652
45	0x400089ad	2.008403
46	0x3fe17264	1.7613034
47	0x3f7dd4c9	0.9915281
48	0x3fe8d56d	1.8190132
49	0x3fdcc309	1.724702
50	0x3f9d5f2a	1.2294667
51	0x3f84d5fe	1.0377805
52	0x40335dd9	2.802603
53	0x4003e40d	2.060794
54	0x4003b9b6	2.05821
55	0x3f51ac37	0.81903404
56	0x3fe876df	1.8161277
57	0x3f9189d8	1.1370192
58	0x40113eff	2.26947
59	0x3f8cfa11	1.1013814
60	0x3fc9430c	1.5723586
61	0x3fae5189	1.3618633
62	0x3f947d58	1.1600752
63	0x3fc1a324	1.5127912
64	0x3fa007c0	1.2502365
65	0x40dcd5ad	6.9010835
66	0x3f9c426d	1.2207772
67	0x4000c599	2.0120604
68	0x3f8d39de	1.1033285
69	0x3f93867f	1.152542
70	0x3f9c51be	1.2212446
71	0x3f829886	1.0202796
72	0x3fcc38fc	1.595489
73	0x4068100f	3.6259801
74	0x4003e4ea	2.0608468
75	0x401c9c69	2.4470465
76	0x3f46f23c	0.7771337
77	0x3f5caedb	0.8620431
78	0x3f55b48e	0.8347863
79	0x3fd8aa88	1.6927042
80	0x3fe0ddb7	1.7567662
81	0x3f809d24	1.0047956
82	0x4013295b	2.2993991
83	0x3f818ad7	1.0120496
84	0x40c90ec8	6.2830544
85	0x4066e6c7	3.6078355
86	0x40164bc5	2.3483746
87	0x40155efe	2.3339229
88	0x3f2e9ce8	0.6820817
89	0x40598b81	3.3991396
90	0x40012b45	2.018266
91	0x403b7f89	2.9296591
92	0x3fa2fd4f	1.2733554
93	0x3fcea79b	1.6144899
94	0x402f2489	2.736605
95	0x40478338	3.117384
96	0x4040893e	3.0083766
97	0x3f8d450c	1.1036696
98	0x3fa7c518	1.3107023
99	0x40084474	2.129178
100	0x40a89548	5.268223
101	0x40334b85	2.8014843
102	0x3fa313c1	1.2740403
103	0x3ff07423	1.8785442
104	0x400e0990	2.2193336
105	0x40066178	2.099699
106	0x4087688f	4.2315135
107	0x409bdb4c	4.8705196
108	0x3f528ff5	0.8225091
109	0x3fc6666b	1.5500005
110	0x408937f3	4.2880797
111	0x402322f6	2.5490088
112	0x3fd167b6	1.6359775
113	0x40848150	4.140785
114	0x401a5362	2.4113393
115	0x3f822593	1.0167717
116	0x3fb1c57e	1.3888395
117	0x3f8e0e23	1.1098064
118	0x3f7d4046	0.989262
119	0x3fb158b1	1.3855191
120	0x3f8917e0	1.0710411
121	0x3f6d79bd	0.9276388
122	0x40577237	3.3663461
123	0x40168517	2.3518732
124	0x3fe62c44	1.7982259
125	0x3fb3f210	1.4058247
126	0x3fa4009d	1.2812687
127	0x3fd4884e	1.6604097
128	0x3ff5ffad	1.9218651
129	0x3fe01387	1.7505959
130	0x3f85908e	1.043474
131	0x3fe16a5e	1.7610586
132	0x4000bbd2	2.0114636
133	0x3fa27f2b	1.2695059
134	0x40260fcb	2.594714
135	0x405440c1	3.3164523
136	0x400f9f59	2.2441008
137	0x4030b448	2.7610035
138	0x3fa435f5	1.2828966
139	0x3f875c93	1.0575126
140	0x3fb9bcbb	1.4510721
141	0x4053d1c7	3.3096788
142	0x3f6e08de	0.9298228
143	0x401de376	2.467008
144	0x4001ee85	2.030183
145	0x40352580	2.8304138
146	0x3fb218f0	1.391386
147	0x40523624	3.2845545
148	0x3fbc08d7	1.4690198
149	0x3f93e7cc	1.1555114
150	0x3f724f2f	0.94652075
151	0x3f6cf511	0.9256144
152	0x3f612471	0.8794623
153	0x3fa629a2	1.2981455
154	0x3f890d3e	1.0707166
155	0x3f4e683b	0.80627793
156	0x40a1ab57	5.0521655
157	0x3fa13403	1.2593998
158	0x3f9549f1	1.166319
159	0x3ffe6418	1.9874296
160	0x3fa3e603	1.2804569
161	0x3f689c74	0.9086373
162	0x40902470	4.504448
163	0x3f9fc561	1.248211
164	0x3f6cff65	0.925772
165	0x3fd919af	1.6960963
166	0x408af979	4.342953
167	0x403b200d	2.9238312
168	0x3f2150ba	0.63013804
169	0x402674c2	2.6008763
170	0x4044c9c8	3.0748158
171	0x3fa57730	1.2926998
172	0x3f9e374b	1.2360624
173	0x3f5a000c	0.8515632
174	0x3ff9ec12	1.9525168
175	0x3f9aa927	1.2082871
176	0x3ff8bd06	1.9432685
177	0x40155a55	2.3336384
178	0x3fa722d1	1.30575
179	0x3fe7e38c	1.8116317
180	0x4036c9fb	2.856078
181	0x3f54d9cc	0.8314483
182	0x3f785ef9	0.97019917
183	0x4080a8fd	4.0206285
184	0x40482114	3.127019
185	0x40b374e6	5.60802
186	0x3ff0f950	1.8826084
187	0x3fca1c4f	1.5789889
188	0x4022d7e2	2.5444264
189	0x3fe94396	1.822375
190	0x40545329	3.3175757
191	0x3fe9bced	1.826078
192	0x3fc0ab1e	1.5052221
193	0x4042bd4c	3.0428038
194	0x3f686df1	0.9079276
195	0x40899433	4.2993407
196	0x3faaddae	1.3348901
197	0x403c2a9f	2.9401014
198	0x3f8f45b5	1.1193148
199	0x402e4a7e	2.7232966
200	0x3f3577df	0.70886034
201	0x3fa85b49	1.3152858
202	0x3f93bb21	1.1541482
203	0x3f945199	1.1587402
204	0x3fe43144	1.7827535
205	0x3fd466c7	1.6593865
206	0x3fe682f7	1.8008717
207	0x3fac1c96	1.3446224
208	0x3fe53c8b	1.7909101
209	0x408603de	4.187972
210	0x40131522	2.2981648
211	0x3f5adb64	0.85491014
212	0x408af181	4.3419805
213	0x3ff71fae	1.9306543
214	0x3f682a78	0.906898
215	0x3f7b0976	0.9806131
216	0x3fda847b	1.707168
217	0x3fc8223a	1.5635445
218	0x406ad366	3.6691527
219	0x409bc52c	4.867819
220	0x3fec01d1	1.8438054
221	0x3fbe8f62	1.4887507
222	0x40067f59	2.1015227
223	0x3faa507e	1.3305814
224	0x403eb765	2.9799435
225	0x3fbbeadf	1.4681052
226	0x40a8dc18	5.276867
227	0x40142611	2.3148234
228	0x3fabb2cd	1.3413941
229	0x4031ea8d	2.7799408
230	0x3f86a941	1.0520402
231	0x3f9b667b	1.214065
232	0x3fc32e36	1.5248477
233	0x400d84e7	2.2112367
234	0x3fa46b03	1.2845157
235	0x40ae053d	5.4381394
236	0x3f91a494	1.137835
237	0x4021cfbf	2.5283048
238	0x3f8e9e31	1.1142026
239	0x3fbe0de0	1.4847984
240	0x401e0383	2.4689643
241	0x400ea369	2.2287238
242	0x3f3c0b0d	0.7345436
243	0x401c36d8	2.4408474
244	0x40414902	3.020081
245	0x3f809fb9	1.0048743
246	0x3f6f7381	0.9353562
247	0x40a0a556	5.0201826
248	0x3fda9af5	1.7078539
249	0x40124aa2	2.2858052
250	0x3fcff68b	1.6247114
251	0x406c2cec	3.6902418
252	0x4041d52c	3.028636
253	0x4020ca3f	2.5123441
254	0x401c6674	2.4437532
255	0x3f880679	1.0626975

net.3.weight f4 [32, 256]
0	0xbd65a88e	-0.05606895
1	0xbd43e369	-0.047824297
2	0x3d1835df	0.03716075
3	0xbd4a64c6	-0.04941251
4	0xbd0722c4	-0.03299214
5	0xbd838f43	-0.064238094
6	0x3e0bedbe	0.1366491
7	0x3dcc7b8d	0.09984503
8	0x3c650558	0.013978325
9	0xbd54a472	-0.05191464
10	0x3d31ccaf	0.043408092
11	0xbcdec46e	-0.027193274
12	0x3d9f59c9	0.07780797
13	0xbd2ff7f5	-0.04296108
14	0xbdb22c09	-0.08699805
15	0xbd942e1c	-0.07235357
16	0xbd86111f	-0.06546234
17	0x3da994ee	0.08280359
18	0xbb860632	-0.004090094
19	0xbd0575da	-0.032583095
20	0xbc8db354	-0.017297424
21	0x3d9f27be	0.07771252
22	0x3ceb8647	0.028750552
23	0x3de42370	0.11139572
24	0x3caf6543	0.02141059
25	0xbb958aa4	-0.0045636464
26	0xbd12ec1d	-0.035869706
27	0x3d56e779	0.052466843
28	0x3db5f07a	0.08883758
29	0xbd44397a	-0.047906376
30	0xbd40e688	-0.04709485
31	0x3dcb2dbb	0.09920832
32	0x3d07ab51	0.033122364
33	0xbce0c996	-0.027439874
34	0xbe38b22d	-0.18036719
35	0x3d21f0de	0.03953635
36	0x3d32014c	0.043458268
37	0xbd7ad68a	-0.061239757
38	0x3e1b6693	0.15175848
39	0x3e1404ad	0.14454909
40	0xbda1e0e3	-0.07904222
41	0xbd9b911e	-0.07596038
42	0x3d865d39	0.065607496
43	0xbbe31a22	-0.0069306055
44	0xbd8d40e4	-0.068971425
45	0xbe44c866	-0.19217071
46	0x3ca10961	0.019657793
47	0x3e39f3d8	0.18159425
48	0xbddca9e0	-0.107745886
49	0xbacd240b	-0.0015651
50	0xbdc1eee1	-0.09469391
51	0xbd6d4cda	-0.05793462
52	0xbd2e8701	-0.04260922
53	0xbca6f57a	-0.020380724
54	0x3b922e0a	0.0044610547
55	0x3b15b86d	0.0022845522
56	0x3c8b396b	0.016995152
57	0x3dc0b7f6	0.09410088
58	0xbc921dc2	-0.017836455
59	0xbda32eb4	-0.07967892
60	0x3c5f5af5	0.013632526
61	0x3d255b39	0.0403702
62	0xbd954a04	-0.07289508
63	0xbd0e4de2	-0.034742244
64	0x3dc11226	0.0942729
65	0xbcc0addc	-0.023520403
66	0xbc95d5c4	-0.018290408
67	0x3df20164	0.118166715
68	0xbd9187e1	-0.07105995
69	0xbdbb7635	-0.091534056
70	0xbe261ff0	-0.1622312
71	0xbd45b539	-0.04826853
72	0xbd855fdf	-0.065124266
73	0xbcddb923	-0.02706582
74	0xbcdf0836	-0.027225595
75	0xbdd51157	-0.10403698
76	0xbd8202c8	-0.06348187
77	0x3e495088	0.19659626
78	0x3d8c862f	0.06861531
79	0xbd6f10e6	-0.058365725
80	0xbd8c12a5	-0.06839494
81	0xbe078ad9	-0.1323656
82	0xbddf4143	-0.109011196
83	0xbdd5b333	-0.1043457
84	0xbc0c5e68	-0.00856743
85	0xbc8ee49a	-0.01744299
86	0xbdb8f09a	-0.09030266
87	0xbbc620f4	-0.006046409
88	0xbd7818dd	-0.060570586
89	0xbd3ba356	-0.045810066
90	0xbd12c4f0	-0.035832345
91	0x3da752d1	0.08170093
92	0x3dadcbe2	0.08486153
93	0xbe1bdc84	-0.15220839
94	0xbb47249a	-0.0030386806
95	0xbd172de6	-0.036909007
96	0x3d081879	0.033226464
97	0xbda07fa1	-0.07836843
98	0x3d99c7cf	0.075088136
99	0xbd9e3927	-0.07725745
100	0xbc07350a	-0.008252392
101	0xbd40a750	-0.04703456
102	0x3d8691d0	0.0657078
103	0x3d9191d1	0.071078904
104	0xbbd590ef	-0.0065175216
105	0xbb6a8c06	-0.0035789027
106	0xbd901ccd	-0.07036743
107	0xbd9572d6	-0.07297294
108	0xbdf44262	-0.11926724
109	0xbe09cda2	-0.13457349
110	0xbe4cc5f9	-0.19997396
111	0x3c906158	0.017624542
112	0xbd8b1a2d	-0.06792102
113	0x3d28deb8	0.041228026
114	0xbd3b428b	-0.045717757
115	0xbd99a336	-0.07501833
116	0xbd05e7fe	-0.032691948
117	0xbd0fa21e	-0.035066716
118	0x3c9a0676	0.018801909
119	0xbaa84189	-0.0012836914
120	0xbe6c2b19	-0.23063315
121	0x3c48e577	0.01226174
122	0xbb935fa2	-0.0044974843
123	0x3cedaa33	0.029011821
124	0x3d3bd7ba	0.04586003
125	0x3c5e4599	0.013566398
126	0x3cc22c24	0.023702689
127	0x3bacc0d3	0.00527201
128	0xbd72227e	-0.059114926
129	0x3cddcb0a	0.027074356
130	0xbd82ef38	-0.063932836
131	0x3cd622c9	0.026139634
132	0xbdb182ef	-0.08667552
133	0x3da6677b	0.08125206
134	0x3d24890c	0.04016976
135	0x3d8a8403	0.067634605
136	0xbdf10f0f	-0.1177045
137	0x3b7bc52a	0.003841708
138	0x3dd101d1	0.102054246
139	0xbd34fa84	-0.044184223
140	0xbd42e34c	-0.04758005
141	0x3d8a2b1a	0.06746502
142	0x3dd153f5	0.10221092
143	0x3dd19c40	0.102348804
144	0xbdbba4c4	-0.09162286
145	0xbd77e67d	-0.060522545
146	0xbdb15f49	-0.08660752
147	0xbdde8b25	-0.108663835
148	0xbd1f78da	-0.038933612
149	0xbdb3aa58	-0.08772725
150	0xbe7ff27a	-0.24994841
151	0x3d8fd1da	0.07022448
152	0xbe0ed709	-0.13949217
153	0x3dd2c820	0.10292077
154	0xbbcfe4fb	-0.0063444353
155	0x3e0114b5	0.12605555
156	0x3d4f2ab5	0.050577838
157	0xbd717b09	-0.058955226
158	0xbd4fa657	-0.050695743
159	0x3d0c3d4c	0.034238145
160	0x3d70952a	0.058736004
161	0x3df1cf3a	0.118071035
162	0xbc1b8c5f	-0.009493916
163	0xbd9457c1	-0.072433
164	0xbd566858	-0.052345604
165	0x3b985eef	0.004649989
166	0xbc0ba9f2	-0.008524405
167	0xbdc856c0	-0.09782171
168	0x3d05b740	0.032645464
169	0xbc1cfbbc	-0.0095815025
170	0x3cc74262	0.024323646
171	0xbd8d4297	-0.06897467
172	0x3d760839	0.060066435
173	0xbc128458	-0.008942686
174	0x3db8a113	0.090150975
175	0xbd74526f	-0.059648927
176	0xbdede67b	-0.11616226
177	0xbda60994	-0.08107296
178	0x3d6333a2	0.055469163
179	0xbd8bd699	-0.06828041
180	0xbe2a3a61	-0.16623832
181	0xbe2ef48c	-0.17085475
182	0x3c3b31b9	0.011425429
183	0x3d2cdeab	0.04220454
184	0x3ce94854	0.028476872
185	0xbd9e7d8c	-0.0773879
186	0x3d4e49b6	0.050363265
187	0x3cd83fe4	0.026397653
188	0x3d5f73d8	0.054553837
189	0xbdfdbd19	-0.12389583
190	0xbd874b03	-0.06606104
191	0xbd76fd84	-0.060300365
192	0x3dafb079	0.08578581
193	0xbd23b9cb	-0.039972108
194	0xbdd1c990	-0.10243523
195	0x3c6dbfda	0.014511073
196	0xbe3ae89c	-0.18252796
197	0x3ce25fe0	0.027633607
198	0xbc4dc613	-0.012559432
199	0xbd6bc05c	-0.057556495
200	0xbd4454e7	-0.04793253
201	0xbd52f5da	-0.051503994
202	0x3e0b0ef2	0.1357992
203	0xbba9f695	-0.0051868656
204	0xbd491585	-0.04909279
205	0x3d4ddf82	0.05026198
206	0xbcfc8cd9	-0.03082888
207	0xbd83e569	-0.06440241
208	0xbdcc6ee2	-0.09982087
209	0xbd85a723	-0.065260194
210	0xbd956bda	-0.07295962
211	0x3d84e1c4	0.06488374
212	0xbc8b99b5	-0.017041067
213	0xbd884de0	-0.066554785
214	0xbd91fc0b	-0.071281515
215	0xbcef5964	-0.02921743
216	0xbd65ede4	-0.056135073
217	0x3d88b73e	0.06675576
218	0x3d08ab4e	0.033366494
219	0x3d016c97	0.0315977
220	0x3d4968c8	0.049172193
221	0x3de0e19a	0.1098053
222	0xbd89aec8	-0.0672279
223	0xbe18d019	-0.14923133
224	0x3d594fd6	0.053054653
225	0xbd3d4c01	-0.04621506
226	0x3d483295	0.048876364
227	0xba8937fe	-0.0010468957
228	0xbdf74364	-0.120734006
229	0x3d390cf3	0.045178365
230	0xbd0907c0	-0.033454657
231	0x3db4333a	0.08798833
232	0xbd1ecf41	-0.03877187
233	0x3cbf09f1	0.02332017
234	0x3d26f4cc	0.0407608
235	0xbb6d6cdd	-0.0036228218
236	0xbdb7cb7d	-0.08974359
237	0xbacfcaa6	-0.0015853241
238	0xbc4b4fc8	-0.012409158
239	0x3ce0b3d0	0.027429491
240	0xbbf355f5	-0.0074260184
241	0xbc4ae1e9	-0.012382963
242	0x3d0bcb9d	0.034129728
243	0xbd2941ac	-0.041322395
244	0x3d01db55	0.031703312
245	0x3d1e0c0f	0.03858572
246	0x3e32fe3d	0.17479797
247	0x3d7efb0c	0.062251136
248	0xbdc552f4	-0.09634963
249	0xbe0986db	-0.1343035
250	0x3d65fe7f	0.05615091
251	0xbd5f0cf9	-0.05445573
252	0x3dae6bff	0.08516692
253	0x3dc3d198	0.09561461
254	0xbd7ed63f	-0.06221604
255	0x3dbd15d6	0.092326805

net.3.bias f4 [32]
0	0x3c829704	0.01594115
1	0xbd177a94	-0.036982134
2	0x3d9463e8	0.07245618
3	0x3d29c643	0.041448843
4	0x3cd21edb	0.025649479
5	0x3cf0dd80	0.029402494
6	0x3c96ca1a	0.018406916
7	0x3d8dcdab	0.06923994
8	0xbc917655	-0.01775662
9	0xbd4cd17e	-0.050004475
10	0x3c936ce4	0.017996259
11	0x3c89328f	0.016747741
12	0x3d293a00	0.04131508
13	0x3d76243a	0.060093142
14	0x3d40d09c	0.047073945
15	0x3d460f8f	0.04835468
16	0xbd0f3adb	-0.03496824
17	0x3d45f66a	0.048330702
18	0xbbde47e9	-0.0067834747
19	0xbce5f2e0	-0.028069913
20	0xbd0e8cb6	-0.03480216
21	0x3d2a4ae8	0.041575342
22	0x3cf23aae	0.029568996
23	0xbc770b84	-0.015078429
24	0x3d38d5ca	0.04512576
25	0x3d8f9412	0.07010664
26	0x3d97b764	0.07408026
27	0x3d496f11	0.049178187
28	0x3d4757aa	0.048667587
29	0xbb6ddd2e	-0.0036295163
30	0x3d0b1a49	0.033960614
31	0x3db32550	0.08747351

net.4.weight f4 [32]
0	0x3fc07632	1.503607
1	0x3fcde766	1.6086242
2	0x3fce5d30	1.6122189
3	0x3fd4d662	1.6627924
4	0x3fc2268f	1.5168017
5	0x3ff4b292	1.9116995
6	0x3fc2d8a0	1.5222359
7	0x3fe88f3f	1.8168715
8	0x3fc5d19d	1.5454594
9	0x3fda1a26	1.703923
10	0x3fd24db6	1.6429965
11	0x3fd234ed	1.6422402
12	0x3fd994f2	1.699858
13	0x3fc5d890	1.5456715
14	0x3fc80159	1.5625411
15	0x3fe57af0	1.7928143
16	0x3fdf49bf	1.744438
17	0x3fe1d7dc	1.7644
18	0x3fcdd9fa	1.6082146
19	0x3fcd5c98	1.6043882
20	0x3fcfc5e6	1.6232269
21	0x3fd0c253	1.6309303
22	0x3fc906ab	1.570516
23	0x3fe8fe9d	1.8202702
24	0x3fd1c31b	1.6387666
25	0x3fdda02b	1.7314504
26	0x3fd73391	1.6812612
27	0x3fc28949	1.5198146
28	0x3fcdb4ae	1.6070764
29	0x3fea79e3	1.8318447
30	0x3fcc8e2b	1.5980886
31	0x3ff4c20c	1.9121718

net.4.bias f4 [32]
0	0x3e92e3d8	0.28689456
1	0x3edad8c5	0.42743507
2	0x3e95abc6	0.29232615
3	0x3ebe61e9	0.37184075
4	0x3e966ff4	0.29382288
5	0x3ef58cf7	0.4795911
6	0x3ea82c6f	0.328464
7	0x3ea098b9	0.31366518
8	0x3e9397f1	0.2882686
9	0x3e9dc8f8	0.3081739
10	0x3eaf6fb1	0.342649
11	0x3e719aed	0.23594256
12	0x3ebd4bc6	0.36971873
13	0x3e9c212b	0.30494055
14	0x3ea67ac2	0.32515532
15	0x3ec8d258	0.3922298
16	0x3ea66564	0.3249923
17	0x3eb00386	0.34377688
18	0x3eb5db90	0.35519075
19	0x3e8d0727	0.2754452
20	0x3e98b7e0	0.29827785
21	0x3eb363d4	0.350371
22	0x3e967563	0.29386434
23	0x3f01220f	0.50442594
24	0x3e783bec	0.24241608
25	0x3eacb814	0.3373419
26	0x3ebab0e4	0.36463082
27	0x3e804614	0.25053465
28	0x3eebc0eb	0.46045622
29	0x3eb910fa	0.36145765
30	0x3ea0622f	0.31324908
31	0x3f15847f	0.584053

net.4.running_mean f4 [32]
0	0xbf820a30	-1.0159359
1	0xbec36d33	-0.3816925
2	0xbf4c997a	-0.79921687
3	0xbf894b71	-1.0726148
4	0xbed61f69	-0.4182084
5	0xbeecfd3e	-0.46286958
6	0xbf5517ab	-0.8323924
7	0xbf105a50	-0.56387806
8	0xbf7e2865	-0.9928039
9	0x3e2e5661	0.17025138
10	0x3e372d9a	0.1788849
11	0xbe34a62c	-0.17641515
12	0xbf84f3d4	-1.038691
13	0xbf29b2db	-0.66288537
14	0xbf332f46	-0.6999401
15	0x3e1acb56	0.15116629
16	0xbf721ed7	-0.9457831
17	0x3e7f49d2	0.24930504
18	0xbe676668	-0.22597659
19	0x3e2e04f4	0.16994077
20	0x3ef57a12	0.47944695
21	0xbf67ddb6	-0.9057268
22	0xbe90e089	-0.28296307
23	0xbf177b46	-0.59172475
24	0xbeae9128	-0.3409512
25	0x3f33bb96	0.7020811
26	0xbf82f63f	-1.0231398
27	0xbe866d00	-0.26255035
28	0xbfa043c5	-1.2520682
29	0xbf3ce060	-0.7377987
30	0x3e88a48d	0.26688042
31	0xbe569722	-0.2095609
